…
[INFO] 	Emotion: Fear, Samples: 3683
[INFO] 	Emotion: Sad, Samples: 4347
[INFO] 	Emotion: Angry, Samples: 3973
[INFO] 	Emotion: Happy, Samples: 6475
[INFO] 	Emotion: Surprise, Samples: 2851
[INFO] Hyper Parameters:
[INFO] 	Train Portion = 0.9
[INFO] 	Validation Portion = 0.1
[INFO] 	Number Of Epochs = 50
[INFO] 	Batch Size = 128
[INFO] 	Learning Rate = 0.1
[INFO] 	Optimizer = Adam
[INFO] 	Using Scheduler = True
[INFO] 		Scheduler Paitence = 5
[INFO] 		Minimum Learning Rate = 1e-06
[INFO] 		Reduce Factor = 0.3
[INFO] 	Using Early Stopping = False
[INFO] Network Architecture:
HowDoIFeel(
  (features): Sequential(
    (0): Conv2d(1, 32, kernel_size=(3, 3), stride=(1, 1), padding=(1, 1))
    (1): BatchNorm2d(32, eps=1e-05, momentum=0.1, affine=True, track_running_stats=True)
    (2): ELU(alpha=1.0, inplace=True)
    (3): Conv2d(32, 32, kernel_size=(3, 3), stride=(1, 1), padding=(1, 1))
    (4): BatchNorm2d(32, eps=1e-05, momentum=0.1, affine=True, track_running_stats=True)
    (5): ELU(alpha=1.0, inplace=True)
    (6): MaxPool2d(kernel_size=2, stride=2, padding=0, dilation=1, ceil_mode=False)
    (7): Conv2d(32, 64, kernel_size=(3, 3), stride=(1, 1), padding=(1, 1))
    (8): BatchNorm2d(64, eps=1e-05, momentum=0.1, affine=True, track_running_stats=True)
    (9): ELU(alpha=1.0, inplace=True)
    (10): Conv2d(64, 64, kernel_size=(3, 3), stride=(1, 1), padding=(1, 1))
    (11): BatchNorm2d(64, eps=1e-05, momentum=0.1, affine=True, track_running_stats=True)
    (12): ELU(alpha=1.0, inplace=True)
    (13): MaxPool2d(kernel_size=2, stride=2, padding=0, dilation=1, ceil_mode=False)
    (14): Conv2d(64, 128, kernel_size=(3, 3), stride=(1, 1), padding=(1, 1))
    (15): BatchNorm2d(128, eps=1e-05, momentum=0.1, affine=True, track_running_stats=True)
    (16): ELU(alpha=1.0, inplace=True)
    (17): Conv2d(128, 128, kernel_size=(3, 3), stride=(1, 1), padding=(1, 1))
    (18): BatchNorm2d(128, eps=1e-05, momentum=0.1, affine=True, track_running_stats=True)
    (19): ELU(alpha=1.0, inplace=True)
    (20): MaxPool2d(kernel_size=2, stride=2, padding=0, dilation=1, ceil_mode=False)
  )
  (classifier): Sequential(
    (0): Flatten(start_dim=1, end_dim=-1)
    (1): Dropout(p=0.5, inplace=False)
    (2): Linear(in_features=4608, out_features=64, bias=True)
    (3): ELU(alpha=True)
    (4): Dropout(p=0.5, inplace=False)
    (5): Linear(in_features=64, out_features=6, bias=True)
  )
)
Epoch 0/49
----------
100%|██████████| 202/202 [00:16<00:00, 11.92it/s]
  0%|          | 0/23 [00:00<?, ?it/s]train Loss: 6.9664 Acc: 0.1927 Learning Rate: 0.1000
100%|██████████| 23/23 [00:01<00:00, 22.74it/s]
  0%|          | 0/202 [00:00<?, ?it/s]val Loss: 1.8446 Acc: 0.2574 Learning Rate: 0.1000

Epoch 1/49
----------
100%|██████████| 202/202 [00:13<00:00, 14.76it/s]
…
