…
[INFO] Class labels: ['angry', 'fear', 'happy', 'neutral', 'sad', 'surprise']
[INFO] Number of Training Samples = 25838
[INFO] Number of Validation Samples = 2871
[INFO] Number of total Samples = 28709
[INFO] Total sample: Counter({2: 6509, 3: 4444, 4: 4340, 0: 3994, 1: 3703, 5: 2848})
[INFO] Train Data Summarize:
	[INFO] Emotion: Sad, Samples: 4340
	[INFO] Emotion: Fear, Samples: 3703
	[INFO] Emotion: Surprise, Samples: 2848
	[INFO] Emotion: Neutral, Samples: 4444
	[INFO] Emotion: Happy, Samples: 6509
	[INFO] Emotion: Angry, Samples: 3994
[INFO] Network Architecture:
HowDoIFeel(
  (features): Sequential(
    (0): Conv2d(1, 32, kernel_size=(3, 3), stride=(1, 1), padding=(1, 1))
    (1): BatchNorm2d(32, eps=1e-05, momentum=0.1, affine=True, track_running_stats=True)
    (2): ELU(alpha=1.0, inplace=True)
    (3): Conv2d(32, 32, kernel_size=(3, 3), stride=(1, 1), padding=(1, 1))
    (4): BatchNorm2d(32, eps=1e-05, momentum=0.1, affine=True, track_running_stats=True)
    (5): ELU(alpha=1.0, inplace=True)
    (6): MaxPool2d(kernel_size=2, stride=2, padding=0, dilation=1, ceil_mode=False)
    (7): Conv2d(32, 64, kernel_size=(3, 3), stride=(1, 1), padding=(1, 1))
    (8): BatchNorm2d(64, eps=1e-05, momentum=0.1, affine=True, track_running_stats=True)
    (9): ELU(alpha=1.0, inplace=True)
    (10): Conv2d(64, 64, kernel_size=(3, 3), stride=(1, 1), padding=(1, 1))
    (11): BatchNorm2d(64, eps=1e-05, momentum=0.1, affine=True, track_running_stats=True)
    (12): ELU(alpha=1.0, inplace=True)
    (13): MaxPool2d(kernel_size=2, stride=2, padding=0, dilation=1, ceil_mode=False)
    (14): Conv2d(64, 128, kernel_size=(3, 3), stride=(1, 1), padding=(1, 1))
    (15): BatchNorm2d(128, eps=1e-05, momentum=0.1, affine=True, track_running_stats=True)
    (16): ELU(alpha=1.0, inplace=True)
    (17): Conv2d(128, 128, kernel_size=(3, 3), stride=(1, 1), padding=(1, 1))
    (18): BatchNorm2d(128, eps=1e-05, momentum=0.1, affine=True, track_running_stats=True)
    (19): ELU(alpha=1.0, inplace=True)
    (20): MaxPool2d(kernel_size=2, stride=2, padding=0, dilation=1, ceil_mode=False)
  )
  (classifier): Sequential(
    (0): Flatten(start_dim=1, end_dim=-1)
    (1): Dropout(p=0.5, inplace=False)
    (2): Linear(in_features=4608, out_features=64, bias=True)
    (3): ELU(alpha=True)
    (4): Dropout(p=0.5, inplace=False)
    (5): Linear(in_features=64, out_features=6, bias=True)
  )
)
Epoch 0/0
----------
train Loss: 2.1275 Acc: 0.1944 Learning Rate: 0.1000
val Loss: 1.8198 Acc: 0.1369 Learning Rate: 0.1000

Training complete in 0m 29s
Best val Acc: 0.136886
[INFO] evaluating network...
              precision    recall  f1-score   support

       angry       0.09      0.00      0.00      1069
        fear       0.14      1.00      0.25      1024
…
