…
[INFO] 	Emotion: Neutral, Samples: 4475
[INFO] 	Emotion: Sad, Samples: 4347
[INFO] 	Emotion: Surprise, Samples: 2883
[INFO] 	Emotion: Disgust, Samples: 396
[INFO] 	Emotion: Angry, Samples: 3581
[INFO] Hyper Parameters:
[INFO] 	Train Portion = 0.9
[INFO] 	Validation Portion = 0.1
[INFO] 	Number Of Epochs = 300
[INFO] 	Batch Size = 64
[INFO] 	Learning Rate = 0.01
[INFO] 	Optimizer = SGD
[INFO] 	Using Scheduler = True
[INFO] 		Scheduler Paitence = 5
[INFO] 		Minimum Learning Rate = 1e-06
[INFO] 		Reduce Factor = 0.75
[INFO] 	Using Early Stopping = False
[INFO] Network Architecture:
HowDoIFeel(
  (features): Sequential(
    (0): Conv2d(1, 64, kernel_size=(3, 3), stride=(1, 1), padding=(1, 1))
    (1): BatchNorm2d(64, eps=1e-05, momentum=0.1, affine=True, track_running_stats=True)
    (2): ReLU(inplace=True)
    (3): Conv2d(64, 64, kernel_size=(3, 3), stride=(1, 1), padding=(1, 1))
    (4): BatchNorm2d(64, eps=1e-05, momentum=0.1, affine=True, track_running_stats=True)
    (5): ReLU(inplace=True)
    (6): MaxPool2d(kernel_size=2, stride=2, padding=0, dilation=1, ceil_mode=False)
    (7): Conv2d(64, 128, kernel_size=(3, 3), stride=(1, 1), padding=(1, 1))
    (8): BatchNorm2d(128, eps=1e-05, momentum=0.1, affine=True, track_running_stats=True)
    (9): ReLU(inplace=True)
    (10): Conv2d(128, 128, kernel_size=(3, 3), stride=(1, 1), padding=(1, 1))
    (11): BatchNorm2d(128, eps=1e-05, momentum=0.1, affine=True, track_running_stats=True)
    (12): ReLU(inplace=True)
    (13): MaxPool2d(kernel_size=2, stride=2, padding=0, dilation=1, ceil_mode=False)
    (14): Conv2d(128, 256, kernel_size=(3, 3), stride=(1, 1), padding=(1, 1))
    (15): BatchNorm2d(256, eps=1e-05, momentum=0.1, affine=True, track_running_stats=True)
    (16): ReLU(inplace=True)
    (17): Conv2d(256, 256, kernel_size=(3, 3), stride=(1, 1), padding=(1, 1))
    (18): BatchNorm2d(256, eps=1e-05, momentum=0.1, affine=True, track_running_stats=True)
    (19): ReLU(inplace=True)
    (20): MaxPool2d(kernel_size=2, stride=2, padding=0, dilation=1, ceil_mode=False)
    (21): Conv2d(256, 512, kernel_size=(3, 3), stride=(1, 1), padding=(1, 1))
    (22): BatchNorm2d(512, eps=1e-05, momentum=0.1, affine=True, track_running_stats=True)
    (23): ReLU(inplace=True)
    (24): Conv2d(512, 512, kernel_size=(3, 3), stride=(1, 1), padding=(1, 1))
    (25): BatchNorm2d(512, eps=1e-05, momentum=0.1, affine=True, track_running_stats=True)
    (26): ReLU(inplace=True)
    (27): MaxPool2d(kernel_size=2, stride=2, padding=0, dilation=1, ceil_mode=False)
  )
  (classifier): Sequential(
    (0): Flatten(start_dim=1, end_dim=-1)
    (1): Linear(in_features=4608, out_features=4096, bias=True)
    (2): Dropout(p=0.1, inplace=False)
    (3): ReLU(inplace=True)
    (4): Linear(in_features=4096, out_features=4096, bias=True)
    (5): Dropout(p=0.1, inplace=False)
    (6): ReLU(inplace=True)
    (7): Linear(in_features=4096, out_features=7, bias=True)
  )
)
Epoch 0/299
----------
100%|██████████| 404/404 [00:51<00:00,  7.82it/s]
  0%|          | 0/45 [00:00<?, ?it/s]
Learning Rate = 0.010000, Training Loss = 1.5200, Training Accuracy = 0.4029
100%|██████████| 45/45 [00:01<00:00, 24.77it/s]
  0%|          | 0/404 [00:00<?, ?it/s]
Learning Rate = 0.010000, Validation Loss = 1.3414, Validation Accuracy = 0.4984
…
